…
          [1., 1., 1., 1., 1., 1., 1., 1., 1.],
          [1., 1., 1., 1., 1., 1., 1., 1., 1.],
          [1., 1., 1., 1., 1., 1., 1., 1., 1.],
          [1., 1., 1., 1., 1., 1., 1., 1., 1.]]]])
tensor([[0., 0., 0., 0., 0., 0., 0., 0., 0., 0., 0., 0., 0., 0., 0., 0., 0., 0.,
         0., 0., 0., 0., 0., 0., 0., 0., 0., 0., 0., 0., 0., 0., 0., 0., 0., 0.,
         0., 0., 0., 0., 0., 0., 0., 0., 0., 0., 0., 0., 0., 0., 0., 0., 0., 0.,
         0., 0., 0., 1., 0., 0., 0., 0., 0., 0., 0., 0., 0., 0., 0., 0., 0., 0.,
         0., 0., 0., 0., 0., 0., 0., 0., 0., 0.]])
tensor([2])
!!!dual_net
 DualNet(
  (conv_layer): Conv2d(6, 64, kernel_size=(3, 3), stride=(1, 1), padding=(1, 1), bias=False)
  (bn_layer): BatchNorm2d(64, eps=1e-05, momentum=0.1, affine=True, track_running_stats=True)
  (relu): ReLU()
  (blocks): Sequential(
    (0): ResidualBlock(
      (conv1): Conv2d(64, 64, kernel_size=(3, 3), stride=(1, 1), padding=(1, 1), bias=False)
      (conv2): Conv2d(64, 64, kernel_size=(3, 3), stride=(1, 1), padding=(1, 1), bias=False)
      (bn1): BatchNorm2d(64, eps=2e-05, momentum=0.01, affine=True, track_running_stats=True)
      (bn2): BatchNorm2d(64, eps=2e-05, momentum=0.01, affine=True, track_running_stats=True)
      (relu): ReLU()
    )
    (1): ResidualBlock(
      (conv1): Conv2d(64, 64, kernel_size=(3, 3), stride=(1, 1), padding=(1, 1), bias=False)
      (conv2): Conv2d(64, 64, kernel_size=(3, 3), stride=(1, 1), padding=(1, 1), bias=False)
      (bn1): BatchNorm2d(64, eps=2e-05, momentum=0.01, affine=True, track_running_stats=True)
      (bn2): BatchNorm2d(64, eps=2e-05, momentum=0.01, affine=True, track_running_stats=True)
      (relu): ReLU()
    )
    (2): ResidualBlock(
      (conv1): Conv2d(64, 64, kernel_size=(3, 3), stride=(1, 1), padding=(1, 1), bias=False)
      (conv2): Conv2d(64, 64, kernel_size=(3, 3), stride=(1, 1), padding=(1, 1), bias=False)
      (bn1): BatchNorm2d(64, eps=2e-05, momentum=0.01, affine=True, track_running_stats=True)
      (bn2): BatchNorm2d(64, eps=2e-05, momentum=0.01, affine=True, track_running_stats=True)
      (relu): ReLU()
    )
    (3): ResidualBlock(
      (conv1): Conv2d(64, 64, kernel_size=(3, 3), stride=(1, 1), padding=(1, 1), bias=False)
      (conv2): Conv2d(64, 64, kernel_size=(3, 3), stride=(1, 1), padding=(1, 1), bias=False)
      (bn1): BatchNorm2d(64, eps=2e-05, momentum=0.01, affine=True, track_running_stats=True)
      (bn2): BatchNorm2d(64, eps=2e-05, momentum=0.01, affine=True, track_running_stats=True)
      (relu): ReLU()
    )
    (4): ResidualBlock(
      (conv1): Conv2d(64, 64, kernel_size=(3, 3), stride=(1, 1), padding=(1, 1), bias=False)
      (conv2): Conv2d(64, 64, kernel_size=(3, 3), stride=(1, 1), padding=(1, 1), bias=False)
      (bn1): BatchNorm2d(64, eps=2e-05, momentum=0.01, affine=True, track_running_stats=True)
      (bn2): BatchNorm2d(64, eps=2e-05, momentum=0.01, affine=True, track_running_stats=True)
      (relu): ReLU()
    )
    (5): ResidualBlock(
      (conv1): Conv2d(64, 64, kernel_size=(3, 3), stride=(1, 1), padding=(1, 1), bias=False)
      (conv2): Conv2d(64, 64, kernel_size=(3, 3), stride=(1, 1), padding=(1, 1), bias=False)
      (bn1): BatchNorm2d(64, eps=2e-05, momentum=0.01, affine=True, track_running_stats=True)
      (bn2): BatchNorm2d(64, eps=2e-05, momentum=0.01, affine=True, track_running_stats=True)
      (relu): ReLU()
    )
  )
  (policy_head): PolicyHead(
    (conv_layer): Conv2d(64, 2, kernel_size=(1, 1), stride=(1, 1), bias=False)
    (bn_layer): BatchNorm2d(2, eps=2e-05, momentum=0.01, affine=True, track_running_stats=True)
    (fc_layer): Linear(in_features=162, out_features=82, bias=True)
    (relu): ReLU()
  )
  (value_head): ValueHead(
    (conv_layer): Conv2d(64, 1, kernel_size=(1, 1), stride=(1, 1), bias=False)
    (bn_layer): BatchNorm2d(1, eps=2e-05, momentum=0.01, affine=True, track_running_stats=True)
    (fc_layer): Linear(in_features=81, out_features=3, bias=True)
    (relu): ReLU()
  )
  (softmax): Softmax(dim=1)
)
!!!dual_net.state_dict().keys()
 odict_keys(['conv_layer.weight', 'bn_layer.weight', 'bn_layer.bias', 'bn_layer.running_mean', 'bn_layer.running_var', 'bn_layer.num_batches_tracked', 'blocks.0.conv1.weight', 'blocks.0.conv2.weight', 'blocks.0.bn1.weight', 'blocks.0.bn1.bias', 'blocks.0.bn1.running_mean'
…
